medical_cost_model.pth (torch, 17220 bytes, 7 tensors)

layer_1.weight f4 [64, 7]
0.29915494 0.3642598 -0.075509466 0.22092739 0.17937392 0.1024582 -0.13668135 0.2256043
0.39542088 -0.26050594 0.21628584 0.31075174 0.28919688 0.0201729 0.17521845 -0.022556316
0.28613618 0.01767921 -0.43096685 0.09083988 -0.18514085 -0.0474739 -0.14653674 0.24650703
-0.24599864 -0.40237436 -0.12843236 -0.25482044 0.05154747 -0.37186778 0.375245 -0.38453344
0.6535385 0.1500187 -0.04056263 0.22096002 0.06394205 0.28073767 0.119852826 -0.2986535
0.096408226 0.06891581 0.16256851 0.37426725 0.22119518 -0.288217 -0.03667562 0.32027626
0.2647859 -0.23037125 -0.37415022 -0.14603055 -0.2899074 0.31013453 0.10886561 0.15655799
0.10989871 -0.05658556 0.27604705 -0.28046972 -0.28674993 -0.24503654 0.2830469 -0.13016427
0.11581446 -0.07874568 0.31348065 -0.22402026 -0.22541726 -0.22543086 0.3214738 0.10954529
0.34343606 -0.17778577 -0.5273409 -0.38440552 -0.27588874 0.15654929 0.072374664 0.32573253
-0.17632431 0.00023318909 0.2403353 -0.09309774 0.22150742 -0.06922566 0.20931134 -0.29872307
-0.45985687 0.10536275 0.038331825 -0.082985975 0.21725072 0.26206616 -0.3195389 0.046514366
0.38206244 -0.080950834 -0.1339946 -0.3657164 -0.21644899 0.09441691 -0.04988873 -0.2743591
0.008865796 -0.25818053 -0.32066378 -0.20813091 -0.33079907 -0.24066436 0.37781665 0.07138802
0.09614352 -0.37220445 -0.2681171 -0.14528203 0.06910706 -0.34279856 -0.18347144 -0.22627544
0.0010474372 -0.1406418 -0.026191337 -0.25611997 -0.25943297 -0.22050515 -0.1508009 -0.073728666
0.30718747 -0.1906104 0.551337 0.13256085 -0.37986276 0.25606617 -0.03815591 -0.14532709
-0.2615644 -0.6808128 0.15993434 0.0052022384 0.1471355 -0.28471363 0.276533 -0.31137803
0.2125533 0.038158473 0.20330971 0.29483786 0.19185111 -0.31992272 0.16251412 -0.3627536
-0.042072613 -0.2914311 0.35477182 -0.3218936 0.2183525 0.14826871 0.47752392 -0.19412203
0.35826123 0.07328462 0.03804136 -0.34276584 0.14978866 -0.056702457 -0.18203117 0.31504652
0.11609361 0.047998495 -0.16771689 0.02977507 0.0782963 -0.29563105 -0.3443586 -0.1329441
-0.29902497 0.103398934 0.18940252 -0.68689257 0.224425 0.5730849 0.05640585 -0.21910204
0.18621948 0.2827817 0.36359945 -0.10044576 -0.07111217 0.0860192 0.057554167 -0.0132727595
0.19639882 0.74718595 -0.08821318 0.11821147 -0.0021884951 0.03146837 0.08028789 0.09007723
-0.69328713 -0.15528928 0.33514565 0.13022076 0.27989483 -0.24673693 -0.12172214 -0.57858366
-0.00613647 0.20965463 0.22967048 -0.015414872 -0.35841605 -0.065810025 -0.40272823 0.24026322
-0.06739622 -0.097881734 0.15636966 -0.14395969 -0.24463964 0.27587146 -0.17186111 -0.07576931
-0.36669734 -0.2076204 0.26492712 -0.11879165 -0.60465896 -0.20501888 -0.68715173 0.27337873
0.23133238 0.3097444 0.117775835 -0.16462387 0.004682422 -0.2865918 -0.09662349 -0.46074638
0.10548598 -0.70093465 -0.64975405 -0.23712298 0.24073151 -0.12950383 -0.024632938 0.2729098
-0.055556048 0.6902589 0.05761672 -0.03678056 -0.06668764 -0.1832173 -0.115635045 -0.35982051
00000000: d62a 993e 4380 ba3e b5a4 9abd ca3a 623e
00000010: ccad 373e 9bd5 d13d 32f6 0bbe d004 673e
00000020: 9b74 ca3e 0961 85be 097a 5d3e da1a 9f3e
00000030: 9d11 943e a341 a53c 776c 333e 06c8 b8bc
00000040: 7180 923e fed3 903c b0a7 dcbe 420a ba3d
00000050: 9095 3dbe fe73 42bd ba0d 16be 576c 7c3e
00000060: 11e7 7bbe 0304 cebe c683 03be d377 82be
00000070: 7123 533d 7465 bebe 1d20 c03e 91e1 c4be
00000080: 4d4e 273f 819e 193e 0025 26bd 5843 623e
00000090: 0df4 823d d9bc 8f3e 6675 f53d 1de9 98be
000000a0: ad71 c53d bb23 8d3d 5c78 263e f59f bf3e
000000b0: fd80 623e 2e91 93be 2d39 16bd 40fb a33e
000000c0: 0492 873e 71e6 6bbe 9e90 bfbe 0889 15be
000000d0: be6e 94be f4c9 9e3e eff4 de3d bd50 203e
000000e0: 9312 e13d 43c6 67bd 0a56 8d3e ba99 8fbe
000000f0: e3d0 92be dcea 7abe 86eb 903e c849 05be
00000100: 2230 ed3d 6a45 a1bd 8980 a03e 9165 65be
00000110: c8d3 66be 59d7 66be 3798 a43e 4859 e03d
00000120: dad6 af3e 790d 36be d0ff 06bf cdd0 c4be
00000130: 4a41 8dbe 754e 203e 2b39 943d 6ac6 a63e
00000140: 5c8e 34be 3884 7439 751a 763e 07aa bebd
00000150: d7d2 623e 2fc6 8dbd b655 563e 3bf2 98be
00000160: 5c72 ebbe 6dc8 d73d d501 1d3d 8df4 a9bd
00000170: f976 5e3e 892d 863e 9a9a a3be d985 3e3d
00000180: b09d c33e 8dc9 a5bd e135 09be 2e3f bbbe
00000190: cea4 5dbe a75d c13d 2058 4cbd cc78 8cbe
000001a0: d841 113c 3d30 84be 0b2e a4be 4520 55be
000001b0: 7f5e a9be b870 76be 2f71 c13e e233 923d
000001c0: e5e6 c43d 9591 bebe a546 89be d0c4 14be
000001d0: 0188 8d3d 4b83 afbe f0df 3bbe c0b4 67be
000001e0: 294a 893a 6704 10be 378f d6bc 2822 83be
000001f0: 66d4 84be 1acc 61be 8d6b 1abe 0eff 96bd
00000200: ad47 9d3e 5f2f 43be 6c24 0d3f 08be 073e
00000210: 5f7d c2be 1b1b 833e 5f49 1cbd a0d0 14be
00000220: c5eb 85be bf49 2ebf d4c5 233e 8a77 aa3b
00000230: b0aa 163e fcc5 91be bc95 8d3e f16c 9fbe
00000240: 93a7 593e 0f4c 1c3d 6c30 503e fdf4 963e
00000250: 9e74 443e e9cc a3be 1a6a 263e d7ba b9be
00000260: 5554 2cbd 7536 95be a7a4 b53e 3dcf a4be
00000270: cc97 5f3e c1d3 173e 047e f43e edc7 46be
00000280: 046e b73e 3f16 963d 42d1 1b3d 017f afbe
00000290: 3362 193e d640 68bd 6166 3abe c74d a13e
000002a0: 7dc2 ed3d 129a 443d fabd 2bbe d9ea f33c
000002b0: cf59 a03d f45c 97be c54f b0be 8022 08be
000002c0: cd19 99be d2c2 d33d bcf2 413e 31d8 2fbf
000002d0: abcf 653e b1b5 123f d209 673d 495c 60be
000002e0: 52b0 3e3e c3c8 903e b529 ba3e 82b6 cdbd
000002f0: 42a3 91bd d62a b03d ebbd 6b3d fd75 59bc
00000300: c61c 493e 9447 3f3f 1da9 b4bd db18 f23d
00000310: db6c 0fbb fae4 003d fa6d a43d 697a b83d
00000320: 447b 31bf 2704 1fbe 3698 ab3e 9758 053e
00000330: 604e 8f3e 9ba8 7cbe 7549 f9bd 0f1e 14bf
00000340: 7114 c9bb b4af 563e bd2e 6b3e a98e 7cbc
00000350: 4f82 b7be 68c7 86bd 6532 cebe 9007 763e
00000360: 0807 8abd 3876 c8bd 5e1f 203e 2b6a 13be
00000370: d082 7abe 063f 8d3e 5cfc 2fbe f12c 9bbd
00000380: c1bf bbbe 719a 54be 87a4 873e 0949 f3bd
00000390: eeca 1abf 78f0 51be 2de9 2fbf 4cf8 8b3e
000003a0: 65e2 6c3e d196 9e3e 7534 f13d 2993 28be
000003b0: 016f 993b 29bc 92be 89e2 c5bd f3e6 ebbe
000003c0: 0909 d83d 7470 33bf 4856 26bf 5ed0 72be
000003d0: 5282 763e a79c 04be 04cb c9bc d5ba 8b3e
000003e0: bd8e 63bd cfb4 303f 83ff 6b3d 36a7 16bd
000003f0: 8893 88bd 519d 3bbe 11d2 ecbd 653a b8be

layer_1.bias f4 [64]
0.1206559 -0.55101585 0.22229724 -0.1043349 -0.6994897 -0.2908946 -0.0070559834 0.08012131
-0.5900597 0.3487016 0.23558788 -0.62644035 0.2958657 -0.1756935 0.13236038 -0.26725143
0.12147581 -0.19309512 -0.61184406 -0.23774064 0.21094249 0.6241216 0.0700664 0.21196939
0.6982031 -0.17822003 -0.615915 -0.24439682 0.06372226 -0.2383561 -0.26472706 0.07931934
0.28008622 0.08237346 -0.15226012 -0.32717258 -0.2227848 -0.62527317 0.1970147 -0.31333035
0.34537825 0.7437104 0.43285397 0.13007937 0.26650682 0.14296024 -0.32856017 0.53712285
0.1411413 0.35142034 0.014102039 -0.11492731 0.042363726 0.16369802 0.19458695 0.593284
0.508428 0.620957 -0.27815595 -0.060356453 -0.08304311 -0.06966798 0.03108672 -0.58134276
00000000: 711a f73d 600f 0dbf e3a1 633e 89ad d5bd
00000010: c211 33bf 23f0 94be e135 e7bb a416 a43d
00000020: 270e 17bf 0489 b23e f33d 713e 655e 20bf
00000030: b67b 973e ffe8 33be 7b89 073e 2ed5 88be
00000040: 4fc8 f83d baba 45be d0a1 1cbf 4872 73be
00000050: 4f01 583e 6fc6 1f3f f97e 8f3d 810e 593e
00000060: 70bd 323f 507f 36be 9bac 1dbf 2943 7abe
00000070: d180 823d 9f13 74be 4e8a 87be 2e72 a23d
00000080: 7667 8f3e 6bb3 a83d 14ea 1bbe 2a83 a7be
00000090: b321 64be e711 20bf 39be 493e d66c a0be
000000a0: 6bd5 b03e ce63 3e3f 099f dd3e 8733 053e
000000b0: 9573 883e 2b64 123e 0a39 a8be e280 093f
000000c0: 5887 103e 5eed b33e 3d0c 673c 025f ebbd
000000d0: 9685 2d3d 74a0 273e cd41 473e 76e1 173f
000000e0: 5628 023f 0af7 1e3f 756a 8ebe 5438 77bd
000000f0: 8212 aabd 16ae 8ebd 94a9 fe3c e1d2 14bf

layer_2.weight f4 [36, 64]
0.03890559 -0.09535901 -0.079093084 -0.103922814 0.10891496 -0.11836748 0.094295844 -0.0042021126
-0.014537349 0.07818481 -0.011553451 0.078394264 0.09037687 -0.10852626 0.048097998 0.023597375
0.026876464 0.01824893 0.03419137 -0.060133353 -0.015992641 0.118765 0.083981186 -0.0046960562
-0.11756636 0.0054784715 -0.08512169 0.10164894 -0.07588592 -0.009025201 -0.027742833 0.02224423
0.117628455 0.011877403 0.0723955 0.097027704 0.1009139 -0.043168932 -0.027957082 0.06024222
-0.03410846 0.058532998 -0.027308464 -0.08478154 0.050880417 0.019164756 0.055731043 0.124185756
0.08534162 0.11849764 0.006690353 -0.10752657 -0.087690905 -0.07764672 -0.110156044 -0.06265594
-0.11507097 -0.11532691 -0.07469432 -0.123229235 -0.076726556 0.047663584 0.1042566 -0.037182853
-0.036359847 0.06674416 -0.06167136 -0.05910407 0.07701619 -0.10891271 0.015284345 0.110422745
0.021435812 0.033992976 -0.07279889 -0.001724571 0.0068730563 0.030679286 0.04856825 0.10861598
-0.09541243 0.0037469119 -0.062454537 -0.09888299 -0.010009706 -0.11002961 0.0872374 0.014476851
-0.06736976 0.065322384 -0.11830349 -0.048349902 -0.024352342 -0.106218785 -0.07948604 -0.020402327
0.09484558 0.12070678 0.0795328 -0.0746405 -0.08177765 0.10908665 0.04421468 0.0033209622
0.016916513 -0.100462094 -0.04173568 0.120327264 -0.030829027 -0.006270513 -0.103791386 -0.06992589
-0.0025524497 -0.07764493 -0.015501201 0.050869897 -0.12227216 0.03712651 -0.08265102 -0.061006382
0.047988713 0.09939003 -0.03416358 -0.051321134 -0.11302948 -0.06445721 -0.10945462 -0.028608814
0.019813858 -0.14405283 0.11050483 0.08536713 -0.16467705 -0.06928014 0.03333316 -0.02568245
-0.03166558 -0.05643946 0.10007878 -0.08461191 0.105922356 0.007370343 0.025127724 0.09751648
-0.016971525 -0.071167916 -0.11054813 0.10328765 -0.101108804 0.057545744 -0.1377226 0.07726711
0.21343538 0.20434038 0.012515234 -0.33121344 0.120983265 0.0017175564 -0.07333511 0.055451825
0.018465083 0.055666216 0.16718107 -0.25681186 -0.027874783 -0.090988524 -0.11361371 -0.04823518
0.088415846 0.030372724 0.033379585 0.03847651 -0.011093485 0.106865294 -0.13169524 0.2856396
-0.12069669 -0.049228773 0.043803472 0.11754278 0.034848385 0.12774087 0.008960213 0.07461058
0.11198704 0.23017785 -0.06996547 0.14341886 0.07572068 -0.058447376 -0.05965042 -0.120159
0.029725784 -0.10816086 0.052221853 0.0353587 -0.13047798 0.026361566 -0.020985363 0.05710222
0.05358248 -0.12426813 0.112128735 0.08833998 0.04206554 -0.13241433 -0.044652596 -0.03622611
-0.05121961 0.07049039 0.0046893116 0.0671064 -0.054903124 0.0841944 0.036578257 -0.12498997
-0.075969435 0.079102024 0.07310163 -0.1910022 -0.117892206 0.09403174 0.007941607 0.10279909
-0.15142198 -0.09325804 0.012113761 0.10797442 0.074792355 -0.049516305 0.041196838 0.09480551
-0.08065054 -0.04277948 0.22368921 -0.08552995 -0.06924321 0.09055513 0.040524855 0.24685681
-0.05298005 -0.0017250627 0.10822105 -0.07687049 -0.018242452 0.039673626 -0.097 0.1323602
-0.06696911 0.13286154 -0.033821285 -0.28351334 -0.122658074 0.07048145 0.033209264 -0.12826838
00000000: 785b 1f3d 964b c3bd 8efb a1bd 7cd5 d4bd
00000010: ce0e df3d a66a f2bd 2e1e c13d e0b1 89bb
00000020: 102e 6ebc 5c1f a03d b04a 3dbc 2c8d a03d
00000030: 8217 b93d 0443 debd 6802 453d 484f c13c
00000040: 082c dc3c c87e 953c 400c 0c3d 644e 76bd
00000050: 0003 83bc 103b f33d 54fe ab3d 60e1 99bb
00000060: a2c6 f0bd c084 b33b 4854 aebd 522d d03d
00000070: 146a 9bbd 70de 13bc f044 e3bc 8839 b63c
00000080: 30e7 f03d 7099 423c 1844 943d 76b6 c63d
00000090: f2ab ce3d e8d1 30bd 4006 e5bc 8cc0 763d
000000a0: 50b5 0bbd 4cc0 6f3d 00b6 dfbc f2a1 adbd
000000b0: fc67 503d 68ff 9c3c 3c46 643d 1a55 fe3d
000000c0: 96c7 ae3d e4ae f23d c03a db3b e436 dcbd
000000d0: 4a97 b3bd 3e05 9fbd 7e99 e1bd c251 80bd
000000e0: 54aa ebbd 8430 ecbd 56f9 98bd 9c5f fcbd
000000f0: d022 9dbd e43a 433d 7c84 d53d 0c4d 18bd
00000100: 10ee 14bd 2ab1 883d 1c9b 7cbd 1c17 72bd
00000110: aaba 9d3d a00d dfbd 306b 7a3c 5225 e23d
00000120: 289a af3c 383c 0b3d 9617 95bd 000b e2ba
00000130: 6037 e13b 2053 fb3c 80ef 463d 0e72 de3d
00000140: 9867 c3bd c08e 753b 54d0 7fbd 2a83 cabd
00000150: c0ff 23bc 3457 e1bd 86a9 b23d 5030 6d3c
00000160: 28f9 89bd bec7 853d 1a49 f2bd 8c0a 46bd
00000170: 907e c7bc 3c89 d9bd 94c9 a2bd c822 a7bc
00000180: 663e c23d 1e35 f73d 18e2 a23d 1edd 98bd
00000190: 0a7b a7bd d268 df3d 741a 353d 80a4 593b
000001a0: 8094 8a3c 12bf cdbd 08f3 2abd 246e f63d
000001b0: 288d fcbc e078 cdbb 9490 d4bd 4e35 8fbd
000001c0: 0047 27bb 4e04 9fbd c0f8 7dbc f45c 503d
000001d0: d469 fabd f811 183d f044 a9bd d4e1 79bd
000001e0: d08f 443d 008d cb3d 1cef 0bbd 1c36 52bd
000001f0: 007c e7bd 2402 84bd be29 e0bd 085d eabc
00000200: ac50 a23c 9682 13be 5b50 e23d f6d4 ae3d
00000210: 1aa1 28be bfe2 8dbd 5a88 083d 0064 d2bc
00000220: c4b3 01bd 102d 67bd 1af6 cc3d 0249 adbd
00000230: d2ed d83d eb82 f13b a8d8 cd3c b8b6 c73d
00000240: de07 8bbc 7cc0 91bd 0f67 e2bd 7a88 d33d
00000250: 2212 cfbd 16b5 6b3d 2707 0dbe 383e 9e3d
00000260: ce8e 5a3e 9b3e 513e b20c 4d3c cf94 a9be
00000270: 13c6 f73d a11f e13a b830 96bd 7421 633d
00000280: 1644 973c 4202 643d 8431 2b3e d87c 83be
00000290: a859 e4bc 3158 babd 4eae e8bd 4192 45bd
000002a0: 5e13 b53d 38d0 f83c 08b9 083d 8c99 1d3d
000002b0: 73c1 35bc 31dc da3d 1edb 06be 5b3f 923e
000002c0: d42f f7bd 1ca4 49bd 456b 333d 45ba f03d
000002d0: 2ebd 0e3d 81ce 023e dbcd 123c 6fcd 983d
000002e0: 7659 e53d beb3 6b3e 0e4a 8fbd 65dc 123e
000002f0: 7213 9b3d 8466 6fbd 0054 74bd ec15 f6bd
00000300: 7d83 f33c 7183 ddbd 95e6 553d 49d4 103d
00000310: 059c 05be 36f4 d73c 7fe9 abbc 04e4 693d
00000320: 4d79 5b3d 4a80 febd c0a3 e53d 97eb b43d
00000330: ea4c 2c3d 9f97 07be a4e5 36bd d461 14bd
00000340: a7cb 51bd 445d 903d cca8 993b 156f 893d
00000350: 19e2 60bd 1d6e ac3d 15d3 153d befa ffbd
00000360: dd95 9bbd 3e00 a23d 4fb6 953d 1596 43be
00000370: 7871 f1bd b793 c03d 841d 023c 5488 d23d
00000380: 5d0e 1bbe 12fe bebd cc78 463c b121 dd3d
00000390: bc2c 993d 9cd1 4abd 04be 283d 6429 c23d
000003a0: 1c2c a5bd 8939 2fbd c90e 653e 542a afbd
000003b0: 62cf 8dbd f874 b93d 64fd 253d 08c8 7c3e
000003c0: 9c01 59bd 801b e2ba ffa2 dd3d 476e 9dbd
000003d0: 3271 95bc d080 223d f0a7 c6bd 6f89 073e
000003e0: 1a27 89bd db0c 083e 3088 0abd a928 91be
000003f0: 2834 fbbd 9458 903d 7006 083d c958 03be

layer_2.bias f4 [36]
0.08767931 -0.065164834 0.20306219 0.3335588 0.04883735 -0.07102594 0.037856042 0.063017175
-0.49942422 0.02335091 -0.24177894 0.30996025 0.18206008 -0.08262199 -0.06738802 -0.06640206
-0.33896428 0.07496052 -0.06783542 -0.17265038 0.14463466 -0.10433239 -0.11898483 0.042557627
0.10899073 0.06854022 0.088027716 0.043925077 0.07586271 -0.07969649 0.108493626 0.45920998
-0.035058305 0.088413015 0.32273978 -0.35385585
00000000: 3691 b33d 2475 85bd 89ef 4f3e 38c8 aa3e
00000010: ac09 483d 0c76 91bd f00e 1b3d 260f 813d
00000020: 88b4 ffbe 684a bf3c e694 77be 1cb3 9e3e
00000030: f56d 3a3e b835 a9bd bb02 8abd cefd 87bd
00000040: ba8c adbe e784 993d 4ced 8abd 43cb 30be
00000050: 1c1b 143e 38ac d5bd 52ae f3bd e850 2e3d
00000060: 8836 df3d d15e 8c3d e047 b43d c8ea 333d
00000070: e95d 9b3d ea37 a3bd e831 de3d 921d eb3e
00000080: 4c99 0fbd e211 b53d 263e a53e 982c b5be

layer_3.weight f4 [16, 36]
-0.07845478 -0.016924601 0.018352285 0.09247996 0.038234413 -0.12899217 -0.10430543 0.0029100976
0.06543553 -0.13950239 0.19838989 0.022929879 -0.14826286 0.07309767 0.13147864 -0.08176094
0.13019265 -0.09338946 0.065817684 0.23583962 0.17294547 0.08228149 -0.020509798 0.031289123
0.05816096 0.032758567 -0.033765357 0.023254534 -0.04645733 -0.09421118 -0.14445184 -0.14252867
-0.10367871 0.15931503 0.030677289 -0.14813524 -0.085194826 0.038929902 -0.08814589 -0.03945382
-0.062585816 -0.040706635 0.019171199 0.009869695 0.16866978 0.10665723 0.15374754 -0.015848424
-0.10923137 0.0005687277 -0.08453074 0.06818694 0.008909003 -0.044167947 -0.13326667 0.1404918
0.14389451 0.15203783 -0.04645168 0.050218426 0.006282429 -0.124389075 -0.10419147 0.085347496
-0.07202763 0.12136392 0.067110054 0.034894884 0.10593438 0.08156934 0.05129993 0.04993035
-0.07072781 -0.08838024 -0.011857139 0.11384732 0.116637886 0.12273532 -0.052572787 -0.02114745
-0.12221479 0.10276604 -0.11237966 -0.0606033 0.14514782 0.040502153 -0.10766951 -0.11222863
-0.115450464 0.14391494 -0.1463288 0.10603992 0.13170117 0.010327041 -0.01335915 0.12962034
0.073496126 0.16462786 0.13463539 -0.10929327 0.09934743 0.08405497 -0.10980179 0.11395015
-0.08112897 -0.09929868 0.010267409 -0.03582947 -0.044813596 -0.109301254 0.09495655 0.17024472
-0.036930304 -0.11229567 -0.008594036 -0.1448017 -0.13004242 -0.055520378 0.10287067 -0.12879907
-0.0291132 -0.086545035 -0.16118631 -0.037518464 -0.013396324 -0.018156257 0.13027862 0.057879113
0.09752476 0.06528153 0.017486256 0.09045987 -0.10632493 0.08662076 0.07938562 -0.07073446
-0.010544351 -0.12607943 -0.13643354 0.0060563213 0.03178406 -0.03595096 0.05003331 -0.1299191
-0.09161373 0.1150326 -0.18174161 0.0069550877 0.1283121 0.12494789 0.05685308 -0.15181679
-0.00079270935 -0.058609724 -0.07042259 0.104169354 -0.07996812 -0.1193618 -0.15815596 0.10523063
-0.016041877 0.15938593 0.034083903 -0.1753471 0.017717868 0.15250735 0.103371605 0.050014935
-0.12521735 -0.12168141 0.11316906 -0.11144298 0.0144416215 -0.02135384 0.055846773 -0.011560772
-0.14891094 -0.06643467 0.121794336 -0.00460413 0.08450918 -0.084083796 0.0033217804 0.08079826
-0.0561773 0.03380909 -0.05971889 -0.06697492 0.026830068 -0.009515068 -0.06644796 0.07492804
-0.23120324 0.10231054 0.18266328 0.026963811 -0.061500605 -0.15265015 0.07826708 0.10399469
0.21699536 0.014861683 0.055410266 0.15970159 0.024876555 -0.15187018 -0.15823805 0.07286849
0.2937267 0.14811407 -0.08485089 0.20794481 -0.1379046 -0.04142251 0.07249299 -0.14372574
0.1228562 0.07751642 -0.09905323 0.08504926 -0.041922055 0.014999509 -0.044609748 -0.16318554
-0.017261326 0.08131993 -0.01939114 -0.0820688 0.005280932 0.030414542 -0.046502613 -0.12924735
-0.0893572 -0.027172169 0.060023807 0.14821225 0.0030931435 0.05967369 0.09589519 -0.07267529
-0.05530282 0.110550985 0.11933136 0.039493144 -0.12879708 0.09459774 -0.13774918 0.083303735
0.019752383 0.05383579 -0.16245799 -0.058595877 0.070782766 0.12828104 -0.056084447 0.14036302
00000000: e6ac a0bd 76a5 8abc 8857 963c 2266 bd3d
00000010: b09b 1c3d 8616 04be 169e d5bd 56b7 3e3b
00000020: 1003 863d b7d9 0ebe b826 4b3e 71d7 bb3c
00000030: 38d2 17be 3bb4 953d 56a2 063e 4872 a7bd
00000040: 3951 053e f942 bfbd 6ccb 863d f17f 713e
00000050: 9e18 313e 3383 a83d 2a04 a8bc 0629 003d
00000060: 303a 6e3d d92d 063d 8b4d 0abd 4b80 be3c
00000070: 0b4a 3ebd cbf1 c0bd 2feb 13be 09f3 11be
00000080: 8155 d4bd 7b23 233e f04e fb3c c4b0 17be
00000090: a07a aebd f674 1f3d d585 b4bd 549a 21bd
000000a0: fe2c 80bd 00bc 26bd eb0c 9d3c 80b4 213c
000000b0: c5b7 2c3e 1b6f da3d ff6f 1d3e 8ed4 81bc
000000c0: b2b4 dfbd ab16 153a 741e adbd 98a5 8b3d
000000d0: 11f7 113c 73e9 34bd 0f77 08be 15dd 0f3e
000000e0: 1559 133e ceaf 1b3e 1e44 3ebd d6b1 4d3d
000000f0: d6dc cd3b b3bf febd 5662 d5bd abca ae3d
00000100: 3983 93bd a68d f83d ff70 893d f0ed 0e3d
00000110: 20f4 d83d d30d a73d e01f 523d c483 4c3d
00000120: bed9 90bd b300 b5bd 7244 42bc c928 e93d
00000130: d8df ee3d a85c fb3d 9056 57bd 6b3d adbc
00000140: bf4b fabd 0077 d23d 4f27 e6bd 2a3b 78bd
00000150: a1a1 143e 96e5 253d d581 dcbd 20d8 e5bd
00000160: 4b71 ecbd 705e 133e 38d7 15be 752b d93d
00000170: acdc 063e c032 293c 56e0 5abc 32bb 043e
00000180: 2385 963d 3594 283e dcdd 093e 26d5 dfbd
00000190: aa76 cb3d 0325 ac3d c3df e0bd b25e e93d
000001a0: f226 a6bd 1b5d cbbd a238 283c ecc1 12bd
000001b0: 768e 37bd 56d9 dfbd 9478 c23d a254 2e3e
000001c0: 3b44 17bd 46fb e5bd 00ce 0cbc e646 14be
000001d0: d729 05be 5669 63bd dcad d23d e7e3 03be
000001e0: ce7e eebc 863e b1bd 060e 25be f6ac 19bd
000001f0: 417c 5bbc 6ebc 94bc c267 053e a612 6d3d
00000200: 10bb c73d 53b2 853d 563f 8f3c 0643 b93d
00000210: e3c0 d9bd 3a66 b13d ee94 a23d 3bdd 90bd
00000220: 37c2 2cbc f71a 01be 3cb5 0bbe 1b74 c63b
00000230: 0130 023d 5041 13bd baef 4c3d 8309 05be
00000240: fb9f bbbd 3696 eb3d 791a 3abe 81e7 e33b
00000250: 3f64 033e aee4 ff3d c6de 683d dc75 1bbe
00000260: d3cd 4fba c010 70bd b839 90bd be56 d53d
00000270: 53c6 a3bd f673 f4bd a3f3 21be 2883 d73d
00000280: 416a 83bc 1136 233e 909b 0b3d 318e 33be
00000290: 1025 913c e32a 1c3e 7eb4 d33d 76dc 4c3d
000002a0: fa38 00be 1a34 f9bd 2ec5 e73d 383c e4bd
000002b0: 8d9c 6c3c 40ee aebc 96bf 643d 6469 3dbc
000002c0: 1c7c 18be e60e 88bd 4f6f f93d 3ede 96bb
000002d0: 2613 ad3d 2034 acbd 3ab2 593b 8f79 a53d
000002e0: 2b1a 66bd 667b 0a3d cb9b 74bd 262a 89bd
000002f0: bbca db3c 16e5 1bbc de15 88bd df73 993d
00000300: 8bc0 6cbe 3088 d13d 150c 3b3e 36e3 dc3c
00000310: 0fe8 7bbd 5250 1cbe 7e4a a03d 2bfb d43d
00000320: 0834 5e3e 6b7e 733c e0f5 623d d088 233e
00000330: ebc9 cb3c db83 1bbe 2809 22be 133c 953d
00000340: 5963 963e 37ab 173e 4ec6 adbd 7cef 543e
00000350: dd36 0dbe a6aa 29bd 3477 943d d72c 13be
00000360: 089c fb3d eec0 9e3d 6bdc cabd 4e2e ae3d
00000370: 76b6 2bbd 80c0 753c b6b8 36bd 1c1a 27be
00000380: a067 8dbc 108b a63d 2bda 9ebc b013 a8bd
00000390: ab0b ad3b eb27 f93c 8679 3ebd 6b59 04be
000003a0: e800 b7bd 2b98 debc 86db 753d f4c4 173e
000003b0: 56b6 4a3b 666c 743d b364 c43d c8d6 94bd
000003c0: 3685 62bd 8e68 e23d 0064 f43d 90c3 213d
000003d0: 62e3 03be 76bc c13d 1f0e 0dbe 269b aa3d
000003e0: c0cf a13c eb82 5c3d 635b 26be 3b02 70bd
000003f0: 8ef6 903d 1b5c 033e ceb8 65bd 53bb 0f3e

layer_3.bias f4 [16]
0.013056718 -0.25399712 0.073337585 -0.14012715 0.07364155 0.69827515 0.14300647 -0.1341755
0.20069239 -0.013956291 -0.0994779 -0.34978127 -0.03831997 -0.35990936 -0.14181885 -0.16469564
00000000: d8eb 553c e90b 82be 0432 963d 7e7d 0fbe
00000010: 62d1 963d 29c2 323f 4a70 123e 4d65 09be
00000020: 4e82 4d3e eda8 64bc 12bb cbbd 8816 b3be
00000030: 67f5 1cbd 0a46 b8be f638 11be f9a5 28be

layer_4.weight f4 [1, 16]
0.1405441 0.27745768 0.23355886 0.009153851 -0.13120092 -1.2359993 0.22335038 -0.13204777
-0.050906766 -0.2165923 -0.16492891 0.57980883 -0.051237855 0.25812244 -0.0019119382 0.035508618
00000000: cbea 0f3e ef0e 8e3e 0e2a 6f3e 09fa 153c
00000010: 8959 06be 3a35 9ebf f6b5 643e 8837 07be
00000020: 9d83 50bd 5fca 5dbe 20e3 28be 5a6e 143f
00000030: c9de 51bd a028 843e 009a faba 7c71 113d
